model/keypoint_classifier/keypoint_classifier.tflite (tflite, 6676 bytes, 6 tensors)

sequential/dense/BiasAdd/ReadVariableOp f4 [20]
0	0xbebc73df	-0.36807153
1	0x3d7d6d96	0.061872087
2	0xbebaf3eb	-0.3651422
3	0xbf4905fa	-0.78524745
4	0xbe2ac80f	-0.16677879
5	0xbf2b6430	-0.6694975
6	0xbf01a82d	-0.5064724
7	0xbf894ef7	-1.0727223
8	0xbf72abb0	-0.94793224
9	0xbedf69c4	-0.4363538
10	0x3e79e728	0.24404585
11	0xbebdfece	-0.37108463
12	0xbf812a06	-1.009095
13	0xbf346178	-0.70461226
14	0xbf428ecd	-0.75999147
15	0xbf75a743	-0.95958346
16	0xbe5e878a	-0.21731392
17	0x3f2e73fc	0.6814573
18	0xbf489428	-0.7835107
19	0xbf26a060	-0.6508846

sequential/dense_2/BiasAdd/ReadVariableOp f4 [7]
0	0xbf33c8a2	-0.70228016
1	0xbee96e53	-0.45591983
2	0x3f67ba62	0.9051877
3	0xbea65f08	-0.32494378
4	0xbe82cf14	-0.25548613
5	0x3ec432fe	0.38320154
6	0x3f32f314	0.6990216

sequential/dense_1/BiasAdd/ReadVariableOp f4 [10]
0	0x3f4fa9fe	0.8111876
1	0xbe2940bc	-0.165286
2	0x3f04e089	0.51905113
3	0x3e80a2d2	0.25124222
4	0x3f10872d	0.5645626
5	0x3e9f0802	0.31060797
6	0xbe525c90	-0.20543122
7	0xbebad751	-0.36492398
8	0x3f405a2b	0.75137585
9	0x3e82e853	0.25567874

sequential/dense/MatMul f4 [20, 42]
0	0x3e855e10	0.26048326
1	0x3e6c5960	0.23080969
2	0x3f03f3e1	0.51544005
3	0x3f181d4b	0.594197
4	0x3eacc6f0	0.33745527
5	0x3e968061	0.2939482
6	0x3e403315	0.18769486
7	0x3e87a669	0.26494148
8	0x3ec0a8b4	0.3762871
9	0x3e8b92eb	0.27260527
10	0x3df9c761	0.12196232
11	0x3e1d371a	0.15353051
12	0x3c87d6b1	0.016581865
13	0x3dc1c7ca	0.09461935
14	0xbd1e2fd3	-0.038619827
15	0xbc2ed75f	-0.010671466
16	0xbdee19f1	-0.11626042
17	0xbd8a4848	-0.06752068
18	0x3e341c66	0.17588958
19	0x3e04dfb2	0.12975958
20	0xbc3a538e	-0.01137246
21	0x3dabd5f7	0.0839042
22	0xbe8ed11b	-0.2789391
23	0xbe78185e	-0.24228045
24	0xbec056f8	-0.37566352
25	0xbf114a0c	-0.5675361
26	0x3e8aa6a2	0.27080256
27	0x3e18bc27	0.14915524
28	0xbd2d877b	-0.042365532
29	0x3de63a5e	0.112416014
30	0xbedab96b	-0.42719588
31	0xbf2b1adb	-0.66837853
32	0xbf4d6b76	-0.802421
33	0xbf7cae39	-0.9870334
34	0x3e90f9ae	0.2831549
35	0x3e95bea4	0.2924701
36	0x3dc570da	0.09640665
37	0x3e84a0d4	0.25903952
38	0xbd0307e7	-0.031989958
39	0xbc91447f	-0.017732857
40	0xbe22d512	-0.15901592
41	0xbe878048	-0.26465058
42	0xbe82e668	-0.2556641
43	0x3e15bfac	0.14623898
44	0xbe757869	-0.23971714
45	0xbda4da3b	-0.08049437
46	0xbb6a85d0	-0.0035785325
47	0x3d433a2c	0.0476629
48	0xbe07d017	-0.13262974
49	0x3d9c0b62	0.076193586
50	0xbebafedf	-0.36522576
51	0x3d4f25fd	0.050573338
52	0x3dcd15ed	0.10013948
53	0x3e1956d4	0.14974529
54	0xbd849afe	-0.06474875
55	0xbcfc4097	-0.030792518
56	0xbd58e64a	-0.052953996
57	0xbe36777a	-0.17819014
58	0x3d475ef4	0.04867454
59	0x3aa406e4	0.0012514261
60	0x3d9928c8	0.074784815
61	0x3e8c7b94	0.27438033
62	0xbd46f0f9	-0.048569653
63	0xbefb9568	-0.49137425
64	0xbc148414	-0.009064693
65	0x3e71f496	0.23628458
66	0x3e0fe285	0.14051254
67	0x3f3c7c37	0.73627037
68	0x3da54615	0.08070008
69	0x3e9679c1	0.29389766
70	0xbad93884	-0.0016572629
71	0xbefe060a	-0.49613982
72	0x3d7d159e	0.061788194
73	0x3f456bf2	0.77117836
74	0x3e4a6c2e	0.1976783
75	0x40105a67	2.2555177
76	0x3dd743b5	0.10510961
77	0xbe1bc80a	-0.15213028
78	0xbd29896b	-0.041390818
79	0xbec4664a	-0.3835929
80	0xbd63b772	-0.05559487
81	0x3f08c9e6	0.5343307
82	0xbc66d960	-0.014089912
83	0x3fe17177	1.7612752
84	0xbe884234	-0.2661301
85	0x3d2d8ee0	0.042372584
86	0x3ebe3eac	0.3715719
87	0x3f49c6c7	0.78818935
88	0x3e5ed851	0.21762206
89	0x3eb01cf2	0.34397084
90	0x3a2add6c	0.000651798
91	0x3e7ae5be	0.24501702
92	0xbd5bdc56	-0.053676926
93	0x3e82ef9b	0.2557343
94	0x3deec45b	0.116585456
95	0x3d462895	0.048378546
96	0x3c5b747e	0.013394473
97	0x3e01f26a	0.1269013
98	0x3d08d6f2	0.033408113
99	0x3e127825	0.14303644
100	0x3d16fe02	0.036863334
101	0x3e06914c	0.13141364
102	0x3d98fd12	0.07470144
103	0xbdbc72b6	-0.09201567
104	0x3d27222e	0.04080408
105	0x3d9e3aa1	0.07726026
106	0x3d97618b	0.07391652
107	0xbee2408b	-0.44189867
108	0xbe53e1fe	-0.20691678
109	0xbf38cded	-0.7218922
110	0x3d49c6f1	0.04926199
111	0xbdec30cb	-0.11532744
112	0xbb2dbaac	-0.002650897
113	0xbdc62cda	-0.096765235
114	0xbec22cc6	-0.37924784
115	0xbeccb369	-0.3998063
116	0xbf2bcb78	-0.67107344
117	0xbf4dec93	-0.8043911
118	0x3d3b6912	0.0457545
119	0xbe236958	-0.15958154
120	0x3d4310e2	0.047623523
121	0x3e050cbd	0.1299314
122	0x3da7170d	0.081586935
123	0xbcb2a8d3	-0.021809017
124	0x3cebd765	0.028789232
125	0xbea44ecd	-0.3209137
126	0xbc86efe0	-0.016471803
127	0xbe38d603	-0.18050389
128	0xbee8319b	-0.45350346
129	0x3e8fe86f	0.2810702
130	0x3e09488b	0.13406579
131	0x3df285e1	0.118419416
132	0xbe2ae073	-0.16687183
133	0x3d736449	0.05942181
134	0xbee11e45	-0.43968406
135	0x3d8444fd	0.06458471
136	0x3e2cb814	0.16867095
137	0x3db11b17	0.08647745
138	0x3d8f2393	0.06989207
139	0xbd2057e6	-0.039146326
140	0x3e24b091	0.1608298
141	0xbcca9347	-0.02472843
142	0x3ef70c69	0.48251656
143	0x3ddf8e48	0.1091581
144	0x3d4cee98	0.05003223
145	0x3db36c7e	0.087609276
146	0xbcec0133	-0.028809166
147	0xbe8033ac	-0.25039423
148	0xbe0f7437	-0.14009176
149	0xbf1d97ef	-0.6155996
150	0xbe53d7f7	-0.20687853
151	0xbf15819d	-0.584009
152	0x3d049062	0.032364257
153	0xbd116117	-0.035492983
154	0xbd9480cb	-0.07251128
155	0xbeed5ce0	-0.4635992
156	0xbe529342	-0.20563987
157	0xbf5cd17f	-0.86257166
158	0xbecb2c8b	-0.3968242
159	0xbf5b4360	-0.8564968
160	0x3914b776	0.00014182724
161	0xbc10a9fa	-0.008829588
162	0xbd2d8244	-0.04236056
163	0xbeaa5e6d	-0.33275166
164	0x3cec479e	0.028842743
165	0xbd4767e1	-0.04868305
166	0x3db9a726	0.09065084
167	0x3ec73f26	0.38915366
168	0xbe9c3ae8	-0.30513692
169	0x3e49db18	0.19712484
170	0xbe821fc7	-0.2541487
171	0x3f2e659e	0.68123806
172	0x3c4ba797	0.012430093
173	0x3eb74c82	0.35800558
174	0x3e29fac9	0.16599573
175	0x3e742ac4	0.23844439
176	0x3e0aa476	0.135393
177	0x3e3b3e8f	0.18285583
178	0xbccb920c	-0.024849914
179	0x3e3d94ab	0.18513744
180	0x3c8b6b28	0.01701887
181	0x3de482f6	0.11157791
182	0x3bde7884	0.006789269
183	0xbd21b3fa	-0.03947828
184	0xbcdae68c	-0.026721261
185	0xbfdcbf32	-1.7245848
186	0x3d3eb265	0.04655685
187	0x3e2aeafa	0.16691199
188	0xbc565b49	-0.0130832875
189	0x3e369055	0.17828496
190	0xbda16289	-0.07880122
191	0x3ddc2ba6	0.10750513
192	0xbda62594	-0.08112636
193	0x3d1185c4	0.03552796
194	0x3dd59732	0.10429229
195	0x3de7ee67	0.113247685
196	0xbc695063	-0.014240357
197	0x3e0e7222	0.13910726
198	0xbe160b62	-0.1465278
199	0x3d42c874	0.04755445
200	0xbcb62178	-0.022232756
201	0xbccdbdd1	-0.025114926
202	0x3e34c5e5	0.17653616
203	0x3d7d9ca1	0.06191695
204	0x3967ad7a	0.00022094502
205	0x3db934ec	0.09043297
206	0xbde8648f	-0.11347305
207	0x3d7b86ac	0.06140773
208	0xbdd14510	-0.10218251
209	0xbc35349e	-0.011059908
210	0xbddd4a26	-0.10805158
211	0x3dcec02c	0.100952476
212	0xbebccec6	-0.36876506
213	0x3e5f4b1a	0.21805993
214	0xbe4140b7	-0.18872343
215	0x3d72c508	0.059269935
216	0xbe2396e1	-0.15975524
217	0x3d0abfb7	0.03387424
218	0x3c9957a8	0.018718556
219	0x3d2a1c19	0.041530702
220	0x3d7a498f	0.061105307
221	0xbe45bdb7	-0.19310652
222	0xbcd5249a	-0.02601843
223	0xbe8712a8	-0.2638142
224	0x3e48f2ad	0.19623823
225	0xbe3a8094	-0.18213111
226	0x3ee0467d	0.43803778
227	0xbd8eff43	-0.06982281
228	0x3da8a663	0.08234861
229	0xbee5585f	-0.44793984
230	0xbdbaaa21	-0.09114481
231	0xbe76dc4d	-0.24107476
232	0xbe05ded1	-0.13073279
233	0x3e157f3c	0.14599317
234	0xbdf866df	-0.12128996
235	0x3e420293	0.18946294
236	0x3de3616a	0.11102565
237	0xbf4bb11c	-0.7956712
238	0xbde1953d	-0.11014793
239	0xbea01517	-0.3126609
240	0xbe512dbd	-0.20427604
241	0x3e1f1342	0.1553469
242	0xbe3ae5ec	-0.1825177
243	0x3e61e096	0.22058329
244	0x3def156b	0.11674007
245	0xbfd14cbd	-1.6351544
246	0xbbabf934	-0.005248213
247	0xbebda08a	-0.37036544
248	0x3d53099f	0.051522847
249	0x3f0465e5	0.5171798
250	0x3de02857	0.10945194
251	0x3f3ee321	0.7456532
252	0xbe421db2	-0.1895664
253	0xbe1655a2	-0.14681104
254	0xbff5e6fb	-1.9211115
255	0xbd627446	-0.05528667

sequential/dense_1/MatMul f4 [10, 20]
0	0xbe032720	-0.12807894
1	0x3f20ab23	0.62761134
2	0xbd33229e	-0.043734185
3	0x3d25f9a7	0.04052129
4	0x3f03236d	0.5122593
5	0x3ecb88ff	0.39752957
6	0x3f55faf4	0.8358605
7	0x3f79ff06	0.9765476
8	0x3e1295ba	0.14314929
9	0xbee81e83	-0.4533578
10	0x3f1e9d02	0.61958325
11	0x3ef94cb0	0.4869132
12	0x3ee456b1	0.4459739
13	0xbe9f31e8	-0.31092763
14	0x3f017ae0	0.5057812
15	0x3f3e356d	0.7430027
16	0x3f70cf66	0.94066465
17	0x3f8ae845	1.0852133
18	0xbeb8d6e6	-0.36101454
19	0x3ee4ee13	0.44712886
20	0x3fb374ef	1.402006
21	0x3f425f12	0.75926316
22	0x3fa50c10	1.2894306
23	0x3f143009	0.57885796
24	0xbc97e93c	-0.018543832
25	0xbe6ff842	-0.23434547
26	0x3ecf1c35	0.40451208
27	0x3e1d78fc	0.15378183
28	0xbe34bbc8	-0.17649758
29	0x3f95a247	1.1690148
30	0xbe16b873	-0.147188
31	0x3ed14216	0.40870732
32	0x3e939fa1	0.28832725
33	0x3eb75202	0.35804754
34	0x3e82ecfb	0.25571427
35	0xbe1d5483	-0.1536427
36	0x3f20a8bd	0.62757474
37	0x3ebd4e3c	0.3697375
38	0x3f6252a3	0.88407344
39	0x3de00eab	0.10940298
40	0xbf854173	-1.0410599
41	0xbf022630	-0.5083952
42	0xbf083d18	-0.5321822
43	0xbec28bc1	-0.3799725
44	0xbf59ae0a	-0.8503119
45	0xbf51a847	-0.81897396
46	0xbf1faab1	-0.6236983
47	0x3f1ae456	0.60504663
48	0x3dbe06d5	0.09278647
49	0x3e78ef9d	0.24310155
50	0xbda8ed91	-0.08248437
51	0x3eb4c8c8	0.35309434
52	0xbdd103e0	-0.10205817
53	0x3fb55d5d	1.4169117
54	0x3de40f1a	0.11135693
55	0x3eced86b	0.4039949
56	0xbf22158f	-0.63314146
57	0x3f1d4b45	0.6144298
58	0xbfd10e86	-1.6332557
59	0x3f34799f	0.7049808
60	0x3e7bf263	0.24604182
61	0x3ceef906	0.029171478
62	0x3f08c17b	0.5342023
63	0x3eed764f	0.46379325
64	0x3f0c3043	0.5476114
65	0x3f46e948	0.7769971
66	0xbd28e04d	-0.041229535
67	0x3eab1407	0.33413717
68	0x3f46d0ad	0.77662164
69	0x3e54de37	0.20787893
70	0x3da4e724	0.08051899
71	0x3cbb6a22	0.022877757
72	0x3e541251	0.20710112
73	0x3e871248	0.26381135
74	0xbee7851c	-0.45218742
75	0x3e8379e9	0.25678948
76	0xbdf28f7b	-0.11843773
77	0x3e73fe89	0.23827566
78	0x3e37e4eb	0.17958419
79	0x3f6b3090	0.91870975
80	0x3e601adf	0.2188525
81	0x3f00d999	0.5033203
82	0x3dd8f995	0.10594479
83	0x3ce62417	0.02809338
84	0x3fb3bd8b	1.4042219
85	0xbe044a9d	-0.12919088
86	0xbd1703a5	-0.03686871
87	0x3e331bb1	0.17491032
88	0xbe3b5a4f	-0.18296169
89	0x3ddee5bd	0.10883663
90	0x3f2d8b26	0.6779045
91	0x3f2854bb	0.6575429
92	0x3ee7e15f	0.45289132
93	0x3f3f6e23	0.7477743
94	0xbe66d725	-0.22543009
95	0xbee230b4	-0.44177783
96	0xbda333d8	-0.07968873
97	0x3ed0f246	0.4080984
98	0xbd0f3a18	-0.034967512
99	0x3d85030d	0.064947225
100	0x3d991326	0.074743554
101	0x3dc97f0f	0.09838688
102	0x3cbb4e39	0.022864448
103	0xbea2a02b	-0.31762823
104	0x3d129ef9	0.03579614
105	0xbe25d84e	-0.16195795
106	0xbda1f1be	-0.07907437
107	0x3f28fe54	0.66013074
108	0x3fa68e94	1.3012261
109	0x3bcff73f	0.0063466127
110	0x3e560849	0.20901598
111	0xbe2bece3	-0.16789584
112	0x3e13e67d	0.14443393
113	0x3ec4f3f7	0.3846738
114	0xbf469a3c	-0.7757909
115	0x3f8af6bc	1.0856547
116	0xbdafe677	-0.085888796
117	0x3e8a977c	0.27068698
118	0xbe02e77d	-0.12783618
119	0xbed6095a	-0.4180401
120	0x3e72e012	0.23718289
121	0x3f7189ff	0.9435119
122	0x3dafbccf	0.08580934
123	0x3c4ea149	0.012611696
124	0x3e1841c2	0.14868835
125	0xbe7660b1	-0.24060322
126	0xbd4081da	-0.046998836
127	0xbdd655e1	-0.10465599
128	0x3e37554f	0.17903636
129	0xbf0b31ac	-0.5437267
130	0x3f864240	1.0488968
131	0x3dcbc65a	0.09949942
132	0x3f95747d	1.1676174
133	0xbe8aa00e	-0.27075237
134	0xbf927843	-1.1442951
135	0x3e8dad16	0.27671117
136	0x3dee870a	0.116468504
137	0x3f55c97e	0.8351058
138	0x3ef37de1	0.47556975
139	0xbd85e822	-0.065384164
140	0x3d1df326	0.038561963
141	0xbe0fbbcb	-0.14036481
142	0x3e134b1d	0.14384122
143	0x3dbfdab9	0.0936789
144	0xbd7b22cb	-0.061312478
145	0x3e29d360	0.1658454
146	0x3eeb31d7	0.45936462
147	0x3f0c8c7b	0.54901856
148	0x3e11edab	0.1425082
149	0x3f135543	0.57551974
150	0x3f10c78c	0.56554484
151	0x3f9f1854	1.2429299
152	0x3f600e6b	0.87522
153	0x3c0a939d	0.008458045
154	0x3feb58e7	1.8386506
155	0x3eb4162c	0.35173166
156	0x3ec9e533	0.39432678
157	0x3d053f00	0.032530785
158	0x3ebf172b	0.37322363
159	0x3ed8a33b	0.42312035
160	0xbfaeabf6	-1.3646228
161	0xbe93ac6a	-0.2884248
162	0xc01efe38	-2.4842663
163	0xbfcda3dc	-1.6065631
164	0xbf743316	-0.9539045
165	0xbfd3fa8c	-1.6560836
166	0xbffca535	-1.9737917
167	0x3e341e47	0.17589675
168	0x3eee4c2f	0.46542498
169	0xbf8429f1	-1.03253
170	0xbf8cdfb6	-1.1005771
171	0x3f1ad6ef	0.6048421
172	0x3f902746	1.1261985
173	0xbf1f9c1a	-0.6234757
174	0x3f066738	0.5250125
175	0x3e269f10	0.16271615
176	0xbf2e6d04	-0.68135095
177	0xbf268ea1	-0.65061384
178	0xc009b91a	-2.1519227
179	0x3edbd77d	0.42937842
180	0x3f1c7de3	0.6112959
181	0xbf039c41	-0.514103
182	0x3f300f37	0.68773216
183	0x3f060e18	0.52365255
184	0x3eb229ee	0.34797615
185	0x3f83e03d	1.0302807
186	0x3ecbeda3	0.3982974
187	0xbf131bad	-0.57464105
188	0xbe826c33	-0.25473174
189	0x3e96aea7	0.29430124
190	0xbdc527e9	-0.09626753
191	0xbf83782a	-1.0271046
192	0xbfb1fd0a	-1.3905346
193	0x3e91f29c	0.2850541
194	0xbe04966e	-0.1294801
195	0xbf12ebbd	-0.5739096
196	0x3e5248c1	0.20535566
197	0xbe7f8657	-0.2495359
198	0x3ebcfac3	0.36910066
199	0xbfd4b199	-1.6616699

sequential/dense_2/MatMul f4 [7, 10]
0	0x3cb65310	0.022256404
1	0x3e895dfb	0.26829514
2	0x3cc50f4b	0.024055144
3	0x3e578cb4	0.21049768
4	0x3f2fd2c8	0.68681
5	0xbf785713	-0.97007865
6	0x3f075d23	0.5287649
7	0x3ebbebd5	0.36703363
8	0xbf5b5a3b	-0.85684556
9	0xbec5a087	-0.38599035
10	0x3ea7a54c	0.327433
11	0xbe99d730	-0.30046988
12	0xbf6c8d17	-0.92402786
13	0x3f4f26a2	0.80918324
14	0xbf160cb3	-0.5861313
15	0x3ec7423a	0.38917714
16	0x3f4bf05d	0.7966364
17	0x3f376db4	0.7165177
18	0xbf12c2fd	-0.5732878
19	0xbec3f38b	-0.38271746
20	0x3f8ced71	1.1009961
21	0xbf7d8487	-0.99030346
22	0xbf863e56	-1.0487773
23	0x3e4dd5cb	0.20101087
24	0x3e36fa60	0.17868948
25	0xbf67dce2	-0.90571415
26	0x3ea79b1c	0.32735527
27	0xbea6a3e6	-0.3254692
28	0xbf426979	-0.7594219
29	0xbea3276c	-0.31866014
30	0xbe8f4000	-0.27978516
31	0x3eca666a	0.3953126
32	0xbf52c0cc	-0.82325435
33	0xbf20a2c4	-0.6274836
34	0xbfbf5cae	-1.4950159
35	0xbf8faaa1	-1.1223947
36	0xbe628abe	-0.22123238
37	0x3e8b683a	0.27227956
38	0xbfaab05a	-1.3335068
39	0x3f062d65	0.52413017
40	0xbdddc16e	-0.108279094
41	0xbfe93070	-1.8217907
42	0x3f1d73cb	0.6150481
43	0xbf0bbd24	-0.5458548
44	0xbf35df43	-0.71043795
45	0x3e9a37b7	0.30120632
46	0xbf590d57	-0.8478598
47	0x3eb09bf2	0.34493977
48	0x3fc04b77	1.502303
49	0xbfaee658	-1.3664045
50	0x3d4d13b2	0.05006761
51	0xc006e97a	-2.1080003
52	0x3f43a654	0.7642567
53	0x3f0c1c0e	0.5473031
54	0xbeaca99d	-0.33723155
55	0x3f5778db	0.84168786
56	0xbfa83de7	-1.3143891
57	0xbf862651	-1.0480443
58	0xbe853e21	-0.26023963
59	0xbf9f1122	-1.2427104
60	0xbfc518f3	-1.5398239
61	0xbe22e75b	-0.15908568
62	0xbf9988b0	-1.1994839
63	0x3f59cb76	0.8507608
64	0x3f2fe580	0.68709564
65	0x3e84ff22	0.259759
66	0xbff3f4d5	-1.9059092
67	0xc0391b3f	-2.892288
68	0xbfbccf97	-1.4750851
69	0x3f1ed1e2	0.62039006
